models/armor_model.onnx (onnx, 16606 bytes, 3 tensors)

features.0.bias f4 [16]
000000 4e 83 2a 3f 08 ad 32 3f 76 58 3c 3f 22 d1 5f bf
       0.66606605 0.69795275 0.7357248 -0.87428486
000010 b6 0f 65 3d 76 a3 cd bd 34 c9 74 3f 32 70 31 be
       0.055923186 -0.10040943 0.9561951 -0.17327955
000020 8c 31 18 3f d1 83 00 bf 92 98 e3 be aa 31 60 3f
       0.594506 -0.50201136 -0.4445234 0.8757578
000030 e2 01 bc bd f4 a2 b0 bd 3f cd 75 3f d8 75 83 3f
       -0.091800466 -0.08624831 0.96016306 1.0270338

features.4.bias f4 [32]
000000 e8 93 93 bd 8a 26 58 be 95 84 32 3f ff 48 30 3f
       -0.07205945 -0.21108451 0.69733554 0.68861383
000010 a4 91 45 be 3b a1 a9 3e 89 f4 35 3f 4e 9e a5 3f
       -0.19293839 0.33130822 0.71076256 1.2938936
000020 ec 59 9c bd 90 4d 6e bd 28 ee b5 3e 05 c3 ed 3e
       -0.07634339 -0.058179438 0.3553326 0.4643785
000030 ab f9 88 3e 22 b7 5e 3f 6c fc 87 be 88 03 d8 3d
       0.26752982 0.8699819 -0.2655977 0.105475485
000040 ef ba 03 3f d0 d6 07 3f b3 f9 40 be 50 93 aa 3d
       0.51457113 0.5306215 -0.18845253 0.08328879
000050 a0 5b 44 3f e8 20 18 3f 8b 98 66 be f0 a0 bb 3d
       0.7670231 0.5942521 -0.22519128 0.09161556
000060 fb 81 c1 3e 78 9d ea 3d 38 45 61 3e 3b 57 ed 3e
       0.3779448 0.11455816 0.21999061 0.46355614
000070 c6 e0 15 3f a0 e8 ab 3e 89 9b 84 3f 80 21 1f 3f
       0.585461 0.33575916 1.0359966 0.6216049

classifier.3.bias f4 [7]
000000 fc 39 cc bc 93 5a b2 bc 32 53 34 3d 96 c7 a9 bc
       -0.024929993 -0.021771705 0.044024654 -0.020725053
000010 af c9 96 bd 70 5f 5c 3d e5 5b 3a be
       -0.07362687 0.053801954 -0.18199117
